…
    "papermill": {
     "duration": 0.063346,
     "end_time": "2023-03-11T02:47:52.447647",
     "exception": false,
     "start_time": "2023-03-11T02:47:52.384301",
     "status": "completed"
    },
    "tags": []
   },
   "outputs": [
    {
     "name": "stdout",
     "output_type": "stream",
     "text": [
      "Model: \"sequential\"\n",
      "_________________________________________________________________\n",
      " Layer (type)                Output Shape              Param #   \n",
      "=================================================================\n",
      " conv2d (Conv2D)             (None, 26, 26, 32)        320       \n",
      "                                                                 \n",
      " conv2d_1 (Conv2D)           (None, 24, 24, 32)        9248      \n",
      "                                                                 \n",
      " max_pooling2d (MaxPooling2D  (None, 12, 12, 32)       0         \n",
      " )                                                               \n",
      "                                                                 \n",
      " conv2d_2 (Conv2D)           (None, 12, 12, 64)        18496     \n",
      "                                                                 \n",
      " conv2d_3 (Conv2D)           (None, 12, 12, 64)        36928     \n",
      "                                                                 \n",
      " max_pooling2d_1 (MaxPooling  (None, 6, 6, 64)         0         \n",
      " 2D)                                                             \n",
      "                                                                 \n",
      " dropout (Dropout)           (None, 6, 6, 64)          0         \n",
      "                                                                 \n",
      " conv2d_4 (Conv2D)           (None, 6, 6, 64)          36928     \n",
      "                                                                 \n",
      " conv2d_5 (Conv2D)           (None, 6, 6, 64)          36928     \n",
      "                                                                 \n",
      " max_pooling2d_2 (MaxPooling  (None, 3, 3, 64)         0         \n",
      " 2D)                                                             \n",
      "                                                                 \n",
      " dropout_1 (Dropout)         (None, 3, 3, 64)          0         \n",
      "                                                                 \n",
      " flatten (Flatten)           (None, 576)               0         \n",
      "                                                                 \n",
      " dense (Dense)               (None, 256)               147712    \n",
      "                                                                 \n",
      " dropout_2 (Dropout)         (None, 256)               0         \n",
      "                                                                 \n",
      " dense_1 (Dense)             (None, 10)                2570      \n",
      "                                                                 \n",
      "=================================================================\n",
      "Total params: 289,130\n",
      "Trainable params: 289,130\n",
      "Non-trainable params: 0\n",
      "_________________________________________________________________\n"
     ]
    }
   ],
   "source": [
    "model.summary()"
…
